model/trained_model.pkl (torch, 2112 bytes, 3 tensors)

fc1.weight f4 [10, 1]
0	0xbece775c	-0.4032544
1	0x3ac33a76	0.0014894742
2	0xbe3517c8	-0.17684853
3	0x3f305f10	0.68895054
4	0x3f408630	0.75204754
5	0xbefac70c	-0.48979986
6	0x3fb4b6f0	1.4118328
7	0x3f908d2b	1.1293081
8	0xbacff000	-0.0015864372
9	0xbf5be40c	-0.85894847

fc1.bias f4 [10]
0	0xbe22dca0	-0.15904474
1	0x3f73c54a	0.95222914
2	0xbdd56cf0	-0.10421169
3	0xbeefb5f8	-0.4681852
4	0x3d0802bd	0.033205736
5	0x3f834039	1.0253974
6	0x3e91ffa2	0.28515345
7	0xbbe9d91a	-0.007136476
8	0xbf372a10	-0.7154856
9	0xbef0c7ec	-0.47027528

fc2.weight f4 [1, 10]
0	0xbe8d2f54	-0.2757517
1	0x3ec6b98b	0.38813433
2	0x3db64330	0.08899534
3	0xbd98bde4	-0.07458094
4	0x3f279d71	0.6547461
5	0x3d8b7f98	0.06811446
6	0x3fab0e56	1.336375
7	0x3f153ebe	0.5829886
8	0xbe74440c	-0.23854083
9	0xbd2a84b0	-0.041630447
